…
lace=True)\n    (3): Dropout(p=0.5, inplace=False)\n    (4): Linear(in_features=4096, out_features=4096, bias=True)\n    (5): ReLU(inplace=True)\n    (6): Linear(in_features=4096, out_features=1000, bias=True)\n  )\n)\nfrom torchinfo import summary\n\nsummary(model, input_size=(1, 3, 224, 224))\n\n==========================================================================================\nLayer (type:depth-idx)                   Output Shape              Param #\n==========================================================================================\nAlexNet                                  [1, 1000]                 --\n├─Sequential: 1-1                        [1, 256, 6, 6]            --\n│    └─Conv2d: 2-1                       [1, 64, 55, 55]           23,296\n│    └─ReLU: 2-2                         [1, 64, 55, 55]           --\n│    └─MaxPool2d: 2-3                    [1, 64, 27, 27]           --\n│    └─Conv2d: 2-4                       [1, 192, 27, 27]          307,392\n│    └─ReLU: 2-5                         [1, 192, 27, 27]          --\n│    └─MaxPool2d: 2-6                    [1, 192, 13, 13]          --\n│    └─Conv2d: 2-7                       [1, 384, 13, 13]          663,936\n│    └─ReLU: 2-8                         [1, 384, 13, 13]          --\n│    └─Conv2d: 2-9                       [1, 256, 13, 13]          884,992\n│    └─ReLU: 2-10                        [1, 256, 13, 13]          --\n│    └─Conv2d: 2-11                      [1, 256, 13, 13]          590,080\n│    └─ReLU: 2-12                        [1, 256, 13, 13]          --\n│    └─MaxPool2d: 2-13                   [1, 256, 6, 6]            --\n├─AdaptiveAvgPool2d: 1-2                 [1, 256, 6, 6]            --\n├─Sequential: 1-3                        [1, 1000]                 --\n│    └─Dropout: 2-14                     [1, 9216]                 --\n│    └─Linear: 2-15                      [1, 4096]                 37,752,832\n│    └─ReLU: 2-16                        [1, 4096]                 --\n│    └─Dropout: 2-17                     [1, 4096]                 --\n│    └─Linear: 2-18                      [1, 4096]                 16,781,312\n│    └─ReLU: 2-19                        [1, 4096]                 --\n│    └─Linear: 2-20                      [1, 1000]                 4,097,000\n==========================================================================================\nTotal params: 61,100,840\nTrainable params: 61,100,840\nNon-trainable params: 0\nTotal mult-adds (Units.MEGABYTES): 714.68\n==========================================================================================\nInput size (MB): 0.60\nForward/backward pass size (MB): 3.95\nParams size (MB): 244.40\nEstimated Total Size (MB): 248.96\n=========================================================================================="
…
.12/site-packages/PIL/TiffImagePlugin.py:900: UserWarning: Truncated File Read\n  warnings.warn(str(msg))\n\n\nEpoch: 3: Time: 27.93 - Train Loss: 0.5076 - Validation Loss: 0.5361 - Train Precision: 0.7216 - Validation Precision: 0.7446\n\n\n\nsummary(vanilla_model, input_size=(1, 3, 256, 256))\n\n==========================================================================================\nLayer (type:depth-idx)                   Output Shape              Param #\n==========================================================================================\nCNN                                      [1, 1]                    --\n├─Sequential: 1-1                        [1, 32, 127, 127]         --\n│    └─Conv2d: 2-1                       [1, 32, 254, 254]         896\n│    └─ReLU: 2-2                         [1, 32, 254, 254]         --\n│    └─MaxPool2d: 2-3                    [1, 32, 127, 127]         --\n├─Sequential: 1-2                        [1, 16, 62, 62]           --\n│    └─Conv2d: 2-4                       [1, 16, 125, 125]         4,624\n│    └─ReLU: 2-5                         [1, 16, 125, 125]         --\n│    └─MaxPool2d: 2-6                    [1, 16, 62, 62]           --\n├─Sequential: 1-3                        [1, 8, 30, 30]            --\n│    └─Conv2d: 2-7                       [1, 8, 60, 60]            1,160\n│    └─ReLU: 2-8                         [1, 8, 60, 60]            --\n│    └─MaxPool2d: 2-9                    [1, 8, 30, 30]            --\n├─Flatten: 1-4                           [1, 7200]                 --\n├─Linear: 1-5                            [1, 4096]                 29,495,296\n├─Linear: 1-6                            [1, 1]                    4,097\n==========================================================================================\nTotal params: 29,506,073\nTrainable params: 29,506,073\nNon-trainable params: 0\nTotal mult-adds (Units.MEGABYTES): 163.73\n==========================================================================================\nInput size (MB): 0.79\nForward/backward pass size (MB): 18.78\nParams size (MB): 118.02\nE
…
hannels=c_out,\n                kernel_size=k,\n                padding=p,\n                stride=s,\n            ),\n            nn.ReLU(),\n            nn.MaxPool2d(kernel_size=pk, stride=ps),\n        )\n\n\nmodel = CNN(in_channels=1, n_outputs=10)\nsummary(model, input_size=(1, 1, 28, 28))\n\n==========================================================================================\nLayer (type:depth-idx)                   Output Shape              Param #\n==========================================================================================\nCNN                                      [1, 10]                   --\n├─Sequential: 1-1                        [1, 64, 13, 13]           --\n│    └─Conv2d: 2-1                       [1, 64, 26, 26]           640\n│    └─ReLU: 2-2                         [1, 64, 26, 26]           --\n│    └─MaxPool2d: 2-3                    [1, 64, 13, 13]           --\n├─Sequential: 1-2                        [1, 32, 5, 5]             --\n│    └─Conv2d: 2-4                       [1, 32, 11, 11]           18,464\n│    └─ReLU: 2-5                         [1, 32, 11, 11]           --\n│    └─MaxPool2d: 2-6                    [1, 32, 5, 5]             --\n├─Flatten: 1-3                           [1, 800]                  --\n├─Linear: 1-4                            [1, 16]                   12,816\n├─Linear: 1-5                            [1, 10]                   170\n==========================================================================================\nTotal params: 32,090\nTrainable params: 32,090\nNon-trainable params: 0\nTotal mult-adds (Units.MEGABYTES): 2.68\n==========================================================================================\nInput size (MB): 0.00\nForward/backward pass size (MB): 0.38\nParams size (MB): 0.13\nEstimated Tota
…
